saved_models/biasedMutagenicity_GIN_1701953871.pth (torch, 94254 bytes, 14 tensors)

gin.module_0.nn.lins.0.weight f4 [64, 14]
0.03305453 0.044200774 -0.45090392 0.23336226 0.042250384 -0.39417595 -0.24921195 0.23952292
0.88909173 -0.792865 0.14855413 -0.24677971 0.04315859 0.10201037 0.17124031 0.18404937
0.13921125 -0.1387607 0.20148662 -0.69832504 0.63744503 0.0021349206 -0.59064376 -0.83901787
-0.095823884 0.14072153 -0.053291336 -0.10066302 -0.25237426 0.20878907 0.4087042 -0.08032675
0.6451252 -0.31450963 0.34055027 -0.3834747 0.46418163 -0.7518252 -0.15416214 -0.12937587
0.03793007 -0.078184426 -0.3816399 -0.52764946 0.5806997 -0.20943713 -0.007345061 0.15641578
-0.0057998057 -0.8027739 1.4615153 0.69988686 0.5475122 0.8435804 1.7551475 1.4148602
-0.4145663 -0.038749125 0.7086998 0.13204324 0.22493808 -0.104337454 0.32619646 0.37060723
0.9656445 -0.69229364 -0.16189002 -0.16856204 0.22124864 -0.028614819 -0.5156977 -0.3321197
0.4566337 0.1682583 -0.0369217 -0.38405484 0.6939033 -0.06234577 -0.33982053 -0.39045438
-0.35094982 -0.3080706 -0.31930298 0.15948915 -0.5181806 0.110421486 0.40312165 -0.19738945
0.2908793 1.2940254 -0.44652358 0.9354992 0.59690565 0.265133 2.1733909 2.1723669
-0.1380349 1.6715728 0.11515401 0.59613615 0.28551233 -1.4752198 -0.76070243 0.96744484
0.70726854 0.98984605 -0.025446795 -0.26242003 -0.22622757 0.0739139 0.008437842 0.19119245
-0.30330384 0.05488644 -0.4848155 0.0056987866 -0.29735702 0.29418665 -0.6814431 -0.3719487
-0.5398863 2.7603602 -0.2575434 -0.24669671 -0.24442348 0.100654885 -0.46107182 0.23032859
-0.1596675 -0.34981966 -0.8910332 -0.09794685 0.64754564 -0.71191096 -0.85516894 0.70160156
0.020139813 0.43450856 0.4212114 0.58894855 -0.57033616 0.18727638 0.38691247 -0.1515156
-0.29564622 0.2671588 0.8434327 0.8967534 0.14595386 -0.57847023 1.7094263 2.0359678
0.9372701 1.7871354 -0.28926164 0.24006411 0.60766464 0.18932818 0.20197356 -1.3988211
1.1658359 0.26763564 -0.6645713 -0.09708759 -0.09760629 0.59139407 0.8571828 1.0822929
-0.18821189 -0.8019992 -0.41646433 -0.54781556 0.12995529 -0.5515968 0.80224967 -0.8142522
0.52500856 -0.6365408 0.21014957 -0.379826 1.0984312 0.09724595 -0.09840826 0.39780813
0.3048452 0.40946898 0.367145 0.24291407 0.2518029 0.6883021 -0.38474807 -0.551252
-0.098939925 0.012510666 0.02864439 -0.08477333 -1.7938136 0.13549812 -0.8177149 -0.41887772
0.29752037 0.2040356 0.06788602 0.45312822 0.7442565 -0.33674112 0.75264066 -0.36352688
-0.20249031 -0.2687949 0.20005177 -1.1139287 0.7214468 -1.0038216 0.6070029 0.6047142
-0.7642335 0.5224069 -1.2339971 0.44658762 0.057525784 -0.02271597 -0.09299064 -0.17096789
-0.17576532 0.09876666 -0.070590235 -0.023343991 0.042470787 -0.29777208 -0.17323141 -0.0052497876
-1.1001995 -0.5137835 -0.046205565 0.038896248 -0.09533499 -0.0110655865 -0.6151229 -0.20414224
0.90149194 0.7816456 -0.5621466 0.38731 0.5928182 0.9728831 -0.24634477 1.2427981
-0.2087425 -0.0840862 -0.2602532 -0.24922034 -0.5023909 0.0075437734 0.5578667 0.48633417
00000000: 3064 073d df0b 353d e1dc e6be 84f6 6e3e
00000010: bd0e 2d3d 6ed1 c9be 6b31 7fbe 7f45 753e
00000020: 849b 633f 33f9 4abf 931e 183e d2b3 7cbe
00000030: 10c7 303d d0ea d03d 9f59 2f3e 7077 3c3e
00000040: 658d 0e3e 4917 0ebe 8252 4e3e 6ec5 32bf
00000050: 992f 233f 06ea 0b3b 6e34 17bf e0c9 56bf
00000060: 503f c4bd 4e19 103e 0448 5abd 6a28 cebd
00000070: 3337 81be cdcc 553e ad41 d13e 5a82 a4bd
00000080: ed26 253f 6807 a1be 9b5c ae3e cc56 c4be
00000090: 37a9 ed3e 9e77 40bf aedc 1dbe 1c7b 04be
000000a0: 905c 1b3d 281f a0bd 4e66 c3be 0914 07bf
000000b0: bca8 143f b076 56be d6ae f0bb 752b 203e
000000c0: 4c0c bebb 9782 4dbf ef12 bb3f c92b 333f
000000d0: c229 0c3f e3f4 573f aca8 e03f 241a b53f
000000e0: 0942 d4be 67b7 1ebd 5a6d 353f 5836 073e
000000f0: 2b56 663e e0ae d5bd 3903 a73e 3bc0 bd3e
00000100: 7a34 773f 283a 31bf 7fc6 25be 879b 2cbe
00000110: 018f 623e a069 eabc c404 04bf 980b aabe
00000120: e4cb e93e e74b 2c3e 353b 17bd d6a2 c4be
00000130: a6a3 313f 475e 7fbd f5fc adbe a3e9 c7be
00000140: b2af b3be 6ebb 9dbe ae7b a3be 2051 233e
00000150: 7ca7 04bf a924 e23d f665 ce3e 7620 4abe
00000160: 22ee 943e a0a2 a53f bd9e e4be e07c 6f3f
00000170: cfce 183f 83bf 873e d618 0b40 0f08 0b40
00000180: 0559 0dbe 19f6 d53f ded5 eb3d 619c 183f
00000190: ac2e 923e 01d4 bcbf 65bd 42bf 77aa 773f
000001a0: 8d0f 353f 8d66 7d3f cc75 d0bc eb5b 86be
000001b0: 33a8 67be 2c60 973d e03e 0a3c f4c7 433e
000001c0: a44a 9bbe 9bd0 603d bd39 f8be e3bc ba3b
000001d0: 2e3f 98be a29f 963e 0e73 2ebf 0f70 bebe
000001e0: fd35 0abf bea9 3040 bbdc 83be 109e 7cbe
000001f0: 264a 7abe 2624 ce3d 9b11 ecbe 42db 6b3e
00000200: e17f 23be 901b b3be c01a 64bf 5c98 c8bd
00000210: 8dc5 253f cc3f 36bf 5aec 5abf 299c 333f
00000220: 40fc a43c e877 de3e 05a9 d73e 55c5 163f
00000230: 8d01 12bf 61c5 3f3e 6419 c63e e826 1bbe
00000240: f15e 97be 0ac9 883e 35eb 573f a191 653f
00000250: ee74 153e a016 14bf 7bce da3f 4c4d 0240
00000260: eff0 6f3f dac0 e43f 1a1a 94be 5ed3 753e
00000270: e98f 1b3f 3fdf 413e 28d2 4e3e 920c b3bf
00000280: 1c3a 953f 8a07 893e 5821 2abf dcd5 c6bd
00000290: cee5 c7bd 9a65 173f 5570 5b3f 9388 8a3f
000002a0: 9eba 40be d24f 4dbf d03a d5be a43d 0cbf
000002b0: 0013 053e 7335 0dbf 3c60 4d3f d572 50bf
000002c0: f666 063f 56f4 22bf 7331 573e 8e78 c2be
000002d0: 6599 8c3f e228 c73d 458a c9bd 82ad cb3e
000002e0: ac14 9c3e eba5 d13e 6efa bb3e 77be 783e
000002f0: 4fec 803e 9134 303f b3fd c4be da1e 0dbf
00000300: 04a1 cabd 89f9 4c3c a4a7 ea3c a49d adbd
00000310: af9b e5bf 05c0 0a3e c455 51bf 2477 d6be
00000320: 9754 983e b5ee 503e d307 8b3d 6c00 e83e
00000330: 9887 3e3f 5569 acbe 0fad 403f 3220 babe
00000340: 9f59 4fbe 7c9f 89be 5fda 4c3e 3795 8ebf
00000350: bdb0 383f 3a7d 80bf 8b64 1b3f 8dce 1a3f
00000360: cfa4 43bf 75bc 053f 9ef3 9dbf 22a7 e43e
00000370: 28a0 6b3d d816 babc e071 bebd 3512 2fbe
00000380: d3fb 33be 2d46 ca3d 9d91 90bd e63b bfbc
00000390: d9f5 2d3d 9575 98be 9363 31be 6906 acbb
000003a0: 56d3 8cbf 5187 03bf 0c42 3dbd ac51 1f3d
000003b0: fe3e c3bd 6f4c 35bc b278 1dbf aa0a 51be
000003c0: 2dc8 663f ed19 483f d7e8 0fbf 7f4d c63e
000003d0: efc2 173f de0e 793f ce41 7cbe 0214 9f3f
000003e0: 98c0 55be 6335 acbd e83f 85be 9e33 7fbe
000003f0: b19c 00bf c231 f73b 5ad0 0e3f cb00 f93e

gin.module_0.nn.lins.0.bias f4 [64]
-1.0716264 -0.9687611 -0.30281347 0.6882108 -0.770104 -0.1372794 -0.40059868 -0.6154862
-0.40487984 0.17684643 0.27365014 -1.2882354 0.3603173 -1.07137 0.16298762 -0.94664794
-0.41524324 -1.3775022 -0.3946134 -0.3619557 -0.57617956 -0.80810094 -0.031988908 -0.9371282
-1.0276605 -1.967671 -0.65085167 -0.70914996 -0.984832 0.2351016 -0.10990062 0.74078965
-0.6275429 -0.409053 -0.3755486 -0.60739243 0.5104446 0.09383667 -0.17588343 -1.0223311
-0.81425416 -0.20640405 -0.41768223 -0.1209434 -0.7333716 1.3110839 -0.05673557 -0.62523556
-0.31798407 -0.9317844 -0.6566687 -1.2618866 -0.13834108 -0.3606634 0.019057281 -0.95784134
-0.43626443 -1.0460327 0.40714473 -0.77077365 -0.3696394 0.84299856 -0.563585 0.07482181
00000000: 0e2b 89bf ba00 78bf 5e0a 9bbe 952e 303f
00000010: 8925 45bf f992 0cbe 451b cdbe 8190 1dbf
00000020: 694c cfbe 3b17 353e df1b 8c3e e6e4 a4bf
00000030: 827b b83e a722 89bf 3ae6 263e 8557 72bf
00000040: c39a d4be fe51 b0bf c40a cabe 4252 b9be
00000050: 8180 13bf b4df 4ebf cd06 03bd a2e7 6fbf
00000060: 618a 83bf a5dc fbbf 379e 26bf da8a 35bf
00000070: f31d 7cbf 79be 703e 9413 e1bd 64a4 3d3f
00000080: a7a6 20bf 656f d1be e847 c0be 127e 1bbf
00000090: 7fac 023f 712d c03d c91a 34be bfdb 82bf
000000a0: f672 50bf 955b 53be 72da d5be 2cb1 f7bd
000000b0: 3ebe 3bbf 99d1 a73f 8f63 68bd 700f 20bf
000000c0: cfce a2be 6c89 6ebf 711b 28bf 8085 a1bf
000000d0: 49a9 0dbe e0a8 b8be 041e 9c3c 1735 75bf
000000e0: 0d5e dfbe 66e4 85bf 4675 d03e 6c51 45bf
000000f0: 6041 bdbe c1ce 573f 1b47 10bf 2d3c 993d

gin.module_0.nn.lins.1.weight f4 [64, 64]
-0.22236943 0.21151462 0.5320323 -0.05314996 0.496676 -1.1432536 -0.9691053 0.46813467
0.5180854 0.5137343 0.95820516 0.7121663 -0.26673922 0.9518364 0.10762581 -0.66921157
0.10187486 0.25051257 0.8827828 -0.14391384 -0.42369092 -0.62726897 -0.07678116 0.23784761
0.27613366 1.2589288 0.23028702 0.18752523 0.72694963 0.011747339 -0.5187444 -0.04802888
-0.024695724 -1.9538382 -0.09471975 0.39538372 -0.47784027 -0.28284377 0.03668265 0.21158788
-1.5880585 -0.74928486 -0.3265174 -0.446907 0.32416573 -0.5030465 -0.023231277 -0.28676608
0.0693231 0.34370652 0.40399542 -1.0743544 -0.89684826 -0.18400781 0.06574247 0.10170001
-0.10991281 0.7886953 -2.8238869 -0.24129255 0.08460791 -0.119601786 0.21571732 -1.1532127
-0.795351 0.33160004 0.5721571 -0.43573004 0.26165995 0.49316195 -0.89355934 -0.38307682
0.35084486 -1.2086718 0.17588224 0.10118719 -0.275 0.6661291 0.6166766 -0.82717246
-0.042730525 0.8482081 -0.20492616 0.03273892 -0.12055025 1.0856509 -1.0084801 1.0211135
0.42068997 0.6883354 0.77962685 0.72199816 -0.09179615 -0.77810085 0.39727938 -0.8213267
-1.3898041 -1.161091 -0.75904876 1.4290476 -0.64249617 0.39756966 -0.5045117 0.35772696
-0.8248665 0.021666933 -1.142863 -0.3811121 -0.16460037 0.5088772 0.63070863 0.71783
0.6126308 -0.64116734 -0.77637297 0.3810698 -0.9991075 -0.103920385 -0.18746595 0.6485805
-0.1421704 0.5006979 -1.3935654 0.7744162 -0.2250253 -0.23396333 -0.25595322 -0.3458007
0.28220874 -0.19579266 0.03170982 -0.64076185 -0.17569861 -0.41722444 0.34990677 -0.7824338
-0.19727097 -0.25509423 0.4376372 -0.18136244 -0.25830328 0.7754769 0.15417524 0.70791173
-0.6174855 0.27725312 0.30968517 -0.25662315 -0.54472244 0.46711117 -0.27294964 0.24564335
-0.09801582 0.73995197 -0.29819822 -0.5372385 -0.13048805 -0.34571967 -0.06192367 -1.3709403
-0.34534743 0.51660657 -0.49103057 -0.040639736 -0.6557096 0.010659385 -0.5901802 0.0087692095
-0.1512928 0.39154422 -1.2483776 -0.9086251 -0.624062 -0.20547907 0.006332224 -0.05766007
-0.32096553 -0.30151126 0.03675658 0.59546125 0.124628685 -0.2700974 0.059839103 0.92568004
-0.08285496 -0.280209 0.12496471 0.33112156 -0.34652922 -0.12256458 0.59997916 -1.2541698
0.42913324 -0.021262934 0.059119508 -0.44942728 -0.15098637 0.38832116 0.33549446 -0.29571044
-0.027586082 0.00727383 -0.26942813 -0.8865186 -0.6248229 0.010337549 -0.15864623 -1.7716444
-0.293685 0.112649895 0.5645792 -2.771874 0.10720049 -0.012593405 -0.23524322 0.044854023
-0.2416297 0.25119913 -0.040897924 -0.80322444 -0.014173162 0.20451695 0.1877005 -0.5581756
0.1615506 -0.3439639 0.6024984 0.081527404 -0.52502906 -0.024462646 0.8234426 -1.3291827
0.22876756 -0.17569122 -0.05420116 -0.4446945 0.67421466 -0.15874259 0.5674821 -0.40890783
-1.665065 -0.37899026 -0.09666173 -0.79028565 0.08766789 -0.039132945 -0.638355 -3.6355264
-0.30145422 0.229699 0.19440211 0.32944062 -1.2934446 -0.3993418 0.13018416 0.65303636
00000000: d0b4 63be 4a97 583e 4533 083f c6b3 59bd
00000010: 514c fe3e 2256 92bf 4917 78bf 59af ef3e
00000020: 3fa1 043f 1784 033f ef4c 753f 8850 363f
00000030: 0b92 88be 8dab 733f ec6a dc3d 7351 2bbf
00000040: c4a3 d03d 2f43 803e 0efe 613f 265e 13be
00000050: 04ee d8be b394 20bf 713f 9dbd 538e 733e
00000060: 6461 8d3e 9424 a13f 5cd0 6b3e 9d06 403e
00000070: 5f19 3a3f e977 403c 6fcc 04bf eeb9 44bd
00000080: b04e cabc 5f17 fabf 6efc c1bd bc6f ca3e
00000090: 7ba7 f4be e6d0 90be 8c40 163d 7eaa 583e
000000a0: 8045 cbbf 22d1 3fbf 4a2d a7be ffd0 e4be
000000b0: 0df9 a53e a8c7 00bf 854f bebc 01d3 92be
000000c0: 45f9 8d3d 4dfa af3e 7dd8 ce3e 7284 89bf
000000d0: d997 65bf 8b6c 3cbe fda3 863d 1848 d03d
000000e0: f819 e1bd efe7 493f 90ba 34c0 6515 77be
000000f0: e946 ad3d c8f1 f4bd 00e5 5c3e 799c 93bf
00000100: 209c 4bbf 7bc7 a93e e378 123f 0218 dfbe
00000110: 4bf8 853e b97f fc3e 4ec0 64bf a522 c4be
00000120: f0a1 b33e c2b5 9abf 791a 343e 3b3b cf3d
00000130: cdcc 8cbe 7087 2a3f 85de 1d3f 93c1 53bf
00000140: 3406 2fbd 2b24 593f 2ad8 51be 3f19 063d
00000150: 0de3 f6bd 9cf6 8a3f e015 81bf d9b3 823f
00000160: ad64 d73e c036 303f a095 473f dfd4 383f
00000170: 9fff bbbd 9e31 47bf 3468 cb3e 7742 52bf
00000180: 1ae5 b1bf a19e 94bf 0551 42bf 08eb b63f
00000190: a17a 24bf 408e cb3e ae27 01bf fd27 b73e
000001a0: 732a 53bf da7e b13c 5649 92bf 2021 c3be
000001b0: 008d 28be c745 023f 1f76 213f b5c3 373f
000001c0: 5fd5 1c3f 8b23 24bf 61c0 46bf 951b c33e
000001d0: 82c5 7fbf 36d4 d4bd 13f7 3fbe 5f09 263f
000001e0: 1e95 11be bd2d 003f 5a60 b2bf 2440 463f
000001f0: 086d 66be 1594 6fbe 4d0c 83be ca0c b1be
00000200: aa7d 903e df7d 48be 28e2 013d f808 24bf
00000210: 56ea 33be 719e d5be fb26 b33e 954d 48bf
00000220: 6701 4abe b69b 82be fc11 e03e 13b7 39be
00000230: 5440 84be a785 463f 1de0 1d3e b439 353f
00000240: 8813 1ebf 1ff4 8d3e 0e8f 9e3e 1c64 83be
00000250: ee72 0bbf 3229 ef3e 0ec0 8bbe ee89 7b3e
00000260: 85bc c8bd 7e6d 3d3f 70ad 98be 7688 09bf
00000270: a99e 05be 2b02 b1be ada3 7dbd f97a afbf
00000280: 61d1 b0be 5440 043f 5c68 fbbe da75 26bd
00000290: 96dc 27bf b3a4 2e3c 0d16 17bf bbac 0f3c
000002a0: 80ec 1abe 7c78 c83e d6ca 9fbf a89b 68bf
000002b0: 87c2 1fbf 1b69 52be 8b7e cf3b f72c 6cbd
000002c0: 9855 a4be af5f 9abe 118e 163d 2670 183f
000002d0: 533d ff3d 354a 8abe d919 753d 5ef9 6c3f
000002e0: dcaf a9bd 8e77 8fbe 7fed ff3d c488 a93e
000002f0: 476c b1be 2303 fbbd 3c98 193f a388 a0bf
00000300: 5ab7 db3e 9b2f aebc 4c27 723d 551b e6be
00000310: 2c9c 1abe 08d2 c63e eec5 ab3e 5c67 97be
00000320: 35fc e1bc 4f59 ee3b 7cf2 89be e2f2 62bf
00000330: 65f4 1fbf d35e 293c 2874 22be 3ec5 e2bf
00000340: e15d 96be fdb4 e63d 4388 103f 6266 31c0
00000350: ee8b db3d 9254 4ebc 99e3 70be dab8 373d
00000360: c76d 77be 2c9d 803e 9584 27bd 1ea0 4dbf
00000370: 8d36 68bc e46c 513e 8f34 403e 99e4 0ebf
00000380: 856d 253e 091c b0be 563d 1a3f d7f7 a63d
00000390: 4e68 06bf e365 c8bc 22cd 523f a922 aabf
000003a0: 0b42 6a3e 66e8 33be 0902 5ebd ffae e3be
000003b0: 5599 2c3f 6b8d 22be 8246 113f 5e5c d1be
000003c0: da20 d5bf 030b c2be 96f6 c5bd 2950 4abf
000003d0: 398b b33d de49 20bd 3c6b 23bf 77ac 68c0
000003e0: 3558 9abe 3736 6b3e 5911 473e 71ac a83e
000003f0: 988f a5bf 8776 ccbe ff4e 053e 642d 273f

gin.module_0.nn.lins.1.bias f4 [64]
-0.70172614 -0.15011853 -0.26539552 0.22813407 -0.34018996 -0.20895132 -0.5000497 -0.0937231
-0.5877428 -1.0441245 -0.16010436 -0.27389082 -0.5398299 -0.21844381 -0.12769996 -0.98423344
-0.061414596 -0.34597194 -0.4611116 0.20562108 -0.31180188 -0.33348268 -0.09626138 0.14138809
-0.08531374 0.39187178 -0.24139239 -0.8878818 -0.018104495 0.03493511 -0.06906038 -0.27192786
-0.09288127 -0.12860112 -0.5707974 -0.1586593 -0.27451253 -1.2147486 0.12120163 -0.09210823
-0.61713445 -0.13638568 -1.9629006 0.26943484 -0.12384408 0.42119473 -0.2134189 0.029721383
-0.089307226 -0.46722874 -0.1343318 -0.94712144 0.34480363 -0.79326725 0.18556882 -0.97276765
-0.11861675 -0.25812984 0.034392998 -0.97895956 -0.37751642 -0.5682519 -0.09811377 -0.07297946
00000000: 53a4 33bf acb8 19be ece1 87be fa9b 693e
00000010: 612d aebe 56f7 55be 4203 00bf e6f1 bfbd
00000020: 5076 16bf dfa5 85bf 66f2 23be 6b3b 8cbe
00000030: 4b32 0abf bcaf 5fbe c7c3 02be b9f6 7bbf
00000040: df8d 7bbd 3c23 b1be d216 ecbe 558e 523e
00000050: 7fa4 9fbe 3ebe aabe b024 c5bd 0ac8 103e
00000060: f8b8 aebd 6ba3 c83e 912f 77be 394c 63bf
00000070: e14f 94bc 1e18 0f3d 876f 8dbd 213a 8bbe
00000080: 8938 bebd 03b0 03be c71f 12bf 9577 22be
00000090: e88c 8cbe e27c 9bbf 8f38 f83d 3da3 bcbd
000000a0: 86fc 1dbf b0a8 0bbe 5440 fbbf 5df3 893e
000000b0: f7a1 fdbd d6a6 d73e 7c8a 5abe 427a f33c
000000c0: b5e6 b6bd 9b38 efbe 468e 09be 8d76 72bf
000000d0: 1a8a b03e 9013 4bbf c105 3e3e 4d07 79bf
000000e0: 57ed f2bd 9829 84be acdf 0c3d 189d 7abf
000000f0: d549 c1be f578 11bf dfef c8bd 4176 95bd

gin.module_2.nn.lins.0.weight f4 [64, 64]
0.26870328 -0.3719496 -0.04839433 0.23524827 0.13696885 0.7665307 0.2188725 -0.01946997
0.65358245 0.96557397 0.037288897 -5.2459054 -0.23009336 1.2116427 0.0135195255 -0.17742226
-0.0012048193 -0.3445335 -0.18444058 -0.16284244 -1.0922767 0.13057509 -1.4848213 0.7070616
0.83624166 0.98790705 0.41481426 -0.24293014 0.116217434 0.6371671 -0.8789492 -3.314616
-0.022190407 -0.08781408 -0.14179026 0.507601 0.6617763 -0.13586485 0.27796376 -0.43669495
-1.9714874 0.4633704 -0.034661133 0.016296068 0.11102324 0.5908802 -0.024950568 -0.07377668
-0.111510895 -0.19903441 -0.34788418 -0.6818223 0.053612545 -0.35072255 1.0291202 0.9888704
-1.90299 0.064358056 -0.23454335 -0.43500304 -1.5718211 -0.37443063 -0.23819281 0.80411774
0.19923508 -0.8233467 -1.6139743 1.1101954 0.40508538 -0.029165156 -0.9053143 0.12101921
0.9362601 0.8192324 0.030231945 -0.34426466 -1.0122042 -0.7531783 -0.0034256426 1.205627
0.10571073 0.8246525 0.4672993 -1.17615 -0.49354517 0.9529556 0.17857927 -0.41073984
-0.11847495 -0.93603 -1.8216751 -1.6527987 -0.6051357 -0.8738262 0.00538403 -0.08411314
-0.3879326 -0.098552115 0.7505338 1.167482 0.54450715 0.4562188 0.464692 -0.012871933
-0.54402196 -1.1411784 -0.46036148 -3.1910408 0.040225223 -0.10052824 -0.05551866 0.6380703
-2.5965405 0.17007376 0.03442479 -0.880124 -0.12955624 0.66503465 -0.78303677 -1.0538956
-0.997079 -0.5529319 -2.8504097 -1.569153 0.06527829 0.2520696 1.5804776 0.7967953
0.73321086 -1.2015148 -0.8204566 -1.3657641 -1.9614147 0.5337387 -0.29298115 0.023261901
-0.414213 0.05061675 -0.07575823 0.02933304 0.35209355 -0.73857 0.0455749 0.27826008
0.10548236 -0.6220449 0.22469959 -0.8106309 0.53983027 0.44127476 1.0932301 0.35420984
0.2795647 0.5562332 0.29275838 -0.44082782 1.2655998 0.081468344 0.1455138 0.95461506
-0.6155501 -0.0010961964 0.6213266 0.5497044 -1.818611 -0.9612012 -0.24978812 0.9323131
0.45243138 0.34378582 0.500901 0.35019186 -0.0745496 0.6119351 0.058022343 0.7769786
0.42401072 0.28165758 0.3668025 0.33870023 0.10662279 0.18198898 0.1742396 -0.222833
0.0872569 0.52924883 0.0741029 -1.3138932 0.47898513 -0.15062544 0.18934603 0.1151404
-0.12589733 0.071616225 -0.06879924 -0.02702726 -0.11151219 -0.054719683 0.038555257 0.079254374
0.020004658 0.0047613373 -0.048969265 -0.15137634 0.044678304 -0.117496 0.10699153 0.0493826
0.09165497 -0.14627187 -0.1340346 0.044972673 -0.17557111 -0.036367502 -0.110827796 -0.05210872
-0.054078996 -0.005787289 -0.08973401 -0.18381721 -0.17762725 0.014522174 -0.08584963 -0.05990544
-0.077854715 -0.11947611 -0.095156595 -0.10139736 -0.10659859 0.016520504 -0.012195047 -0.17400138
-0.10393077 0.06186631 -0.04561837 0.02657373 -0.08713583 -0.13345209 -0.087159246 -0.006101392
-0.008685503 -0.13544655 0.020506132 -0.042321075 0.0437451 -0.12273055 -0.08276952 0.08026655
-0.027560892 -0.1388697 -0.1385511 -0.12561926 0.058484834 0.0039081764 -0.012018687 -0.07153866
00000000: 7a93 893e 2e70 bebe 2239 46bd ece4 703e
00000010: 9041 0c3e 5b3b 443f 1d20 603e 7d7f 9fbc
00000020: 2e51 273f db2f 773f 3ebc 183d 75de a7c0
00000030: 989d 6bbe 1c17 9b3f 0081 5d3c 2eae 35be
00000040: 07eb 9dba b266 b0be fedd 3cbe 2bc0 26be
00000050: b9cf 8bbf 7ab5 053e a00e bebf fd01 353f
00000060: ef13 563f 7ae7 7c3f 8962 d43e aec2 78be
00000070: 6803 ee3d 621d 233f d102 61bf ab22 54c0
00000080: a8c8 b5bc ded7 b3bd 7731 11be 24f2 013f
00000090: 2c6a 293f 2820 0bbe 4451 8e3e 7b96 dfbe
000000a0: b359 fcbf e33e ed3e d5f8 0dbd 557f 853c
000000b0: 2760 e33d ed43 173f 2265 ccbc 3a18 97bd
000000c0: d35f e4bd adcf 4bbe e01d b2be e88b 2ebf
000000d0: d498 5b3d e891 b3be 36ba 833f 9c26 7d3f
000000e0: 2d95 f3bf 28ce 833d 222c 70be b8b8 debe
000000f0: 6f31 c9bf 5fb5 bfbe d1e8 73be a9da 4d3f
00000100: 4804 4c3e d9c6 52bf b696 cebf e21a 8e3f
00000110: 5a67 cf3e c4eb eebc aec2 67bf ebd8 f73d
00000120: beae 6f3f 37b9 513f fca8 f73c 7543 b0be
00000130: e88f 81bf 4bd0 40bf bf80 60bb fc51 9a3f
00000140: de7e d83d 6d1c 533f db41 ef3e 158c 96bf
00000150: f4b1 fcbe e6f4 733f 7cdd 363e 7e4c d2be
00000160: ffa2 f2bd a99f 6fbf a62c e9bf e88e d3bf
00000170: 2cea 1abf 13b3 5fbf 846c b03b 8343 acbd
00000180: 1a9f c6be b1d5 c9bd fc22 403f 0d70 953f
00000190: d264 0b3f 8395 e93e 1cec ed3e cde4 52bc
000001a0: 0645 0bbf 2212 92bf 80b4 ebbe 033a 4cc0
000001b0: 34c3 243d c0e1 cdbd 8967 63bd 9358 233f
000001c0: b82d 26c0 d127 2e3e 0201 0d3d ce4f 61bf
000001d0: 64aa 04be b63f 2a3f 1975 48bf 0de6 86bf
000001e0: 9240 7fbf f28c 0dbf 1d6d 36c0 01da c8bf
000001f0: a0b0 853d 440f 813e 174d ca3f c7fa 4b3f
00000200: b5b3 3b3f 3dcb 99bf 7209 52bf 5cd1 aebf
00000210: a30f fbbf 19a3 083f a001 96be be8f be3c
00000220: ba13 d4be 8253 4f3d 2227 9bbd d84b f03c
00000230: 9b45 b43e ec12 3dbf bfac 3a3d 1b78 8e3e
00000240: 2307 d83d 563e 1fbf a617 663e 8285 4fbf
00000250: 5132 0a3f c4ee e13e f7ee 8b3f fe5a b53e
00000260: 1b23 8f3e 4d65 0e3f 6de4 953e 2fb4 e1be
00000270: 2dff a13f e0d8 a63d 9201 153e a761 743f
00000280: b194 1dbf 3fae 8fba 430f 1f3f 6db9 0c3f
00000290: 3fc8 e8bf 4811 76bf 75c8 7fbe 12ac 6e3f
000002a0: 16a5 e73e b204 b03e 0c3b 003f 594c b33e
000002b0: 76ad 98bd c7a7 1c3f d6a8 6d3d 12e8 463f
000002c0: ef17 d93e 6c35 903e 8acd bb3e 1e6a ad3e
000002d0: 0d5d da3d 525b 3a3e de6b 323e 552e 64be
000002e0: bfb3 b23d da7c 073f 43c3 973d a72d a8bf
000002f0: 8a3d f53e 8e3d 1abe ede3 413e bbce eb3d
00000300: 3beb 00be 87ab 923d 9ee6 8cbd 4668 ddbc
00000310: 8160 e4bd bf21 60bd 1eec 1d3d 1e50 a23d
00000320: cfe0 a33c fe04 9c3b ff93 48bd 6602 1bbe
00000330: 9900 373d bea1 f0bd 601e db3d 6945 4a3d
00000340: 9ab5 bb3d 4bc8 15be 5e40 09be 4435 383d
00000350: eac8 33be 17f6 14bd aff9 e2bd f46f 55bd
00000360: f081 5dbd 4ca3 bdbb 77c6 b7bd 943a 3cbe
00000370: ebe3 35be 6aee 6d3c eed1 afbd 685f 75bd
00000380: 4b72 9fbd e4af f4bd 76e1 c2bd 6ba9 cfbd
00000390: 5d50 dabd 0256 873c bccd 47bc 6b2d 32be
000003a0: a8d9 d4bd 8767 7d3d 54da 3abd 27b1 d93c
000003b0: 4574 b2bd aaa7 08be 8c80 b2bd 30ee c7bb
000003c0: a44d 0ebc 80b2 0abe 7afc a73c dd58 2dbd
000003d0: 102e 333d 285a fbbd 1183 a9bd ca62 a43d
000003e0: 61c7 e1bc dc33 0ebe 57e0 0dbe 56a2 00be
000003f0: cb8d 6f3d 2910 803b 07ea 44bc dc82 92bd

gin.module_2.nn.lins.0.bias f4 [64]
1.3641305 -0.0012116058 1.2841536 -0.2025413 -0.13161278 -2.4932785 -2.9536176 -1.8446065
0.67771655 0.029676434 1.596722 -0.030821865 -0.18929823 0.57098365 1.5330296 -0.6541817
-0.50061435 -0.24900013 -0.33618686 2.353383 -0.8114531 1.3850129 -2.1120408 0.23216565
0.6695751 1.2076378 -1.1180862 1.4820404 -0.6757043 -0.63026184 -2.0047686 -0.80047876
-0.1993453 -0.9245026 0.3407984 -1.1261097 -0.25008193 -1.0750183 -0.7159551 -2.452712
-0.7795265 1.8258134 -2.2799711 -0.5082139 -0.6726167 -1.3826365 -0.51236784 -1.6267899
-2.1110632 1.6923988 1.8392193 -0.19409613 -0.9761696 -0.22073732 -0.57783955 1.3508154
1.7187281 -1.6751748 -1.2934524 0.07917484 -0.6563584 1.179209 -1.6003036 -2.0984998
00000000: d49b ae3f bfce 9eba 255f a43f fd66 4fbe
00000010: 80c5 06be e091 1fc0 1208 3dc0 111c ecbf
00000020: d57e 2d3f fe1b f33c 6361 cc3f 237e fcbc
00000030: 65d7 41be fc2b 123f 503a c43f 7478 27bf
00000040: 4328 00bf e4f9 7ebe af20 acbe d49d 1640
00000050: 64bb 4fbf 1a48 b13f ad2b 07c0 d5bc 6d3e
00000060: 4669 2b3f e093 9a3f 731d 8fbf 80b3 bd3f
00000070: f5fa 2cbf d758 21bf 214e 00c0 2dec 4cbf
00000080: 2d21 4cbe 34ac 6cbf 217d ae3e 5d24 90bf
00000090: bd0a 80be 339a 89bf d548 37bf 3cf9 1cc0
000000a0: 0c8f 47bf 41b4 e93f 0ceb 11c0 4e1a 02bf
000000b0: 9c30 2cbf 3cfa b0bf 8a2a 03bf a73a d0bf
000000c0: a91b 07c0 86a0 d83f 8a6b eb3f 23c1 46be
000000d0: 40e6 79bf f708 62be 4bed 13bf 85e7 ac3f
000000e0: 48ff db3f 216c d6bf d98f a5bf 6b26 a23d
000000f0: 1b07 28bf 52f0 963f c0d6 ccbf d24d 06c0

gin.module_2.nn.lins.1.weight f4 [64, 64]
-0.32150948 0.30737463 0.072984286 -0.10081973 -0.6151987 1.2482364 -0.001179332 1.3657746
0.26042584 0.1299291 -0.9117092 0.38413626 -0.1875888 0.06669072 -0.10197451 -0.4052129
0.5549892 0.5475575 1.0950572 0.28513092 0.07068842 0.10638432 -0.20915644 1.077113
-1.5387686 -1.3253183 0.71201247 -0.30325606 0.025831709 1.106746 0.8505063 0.5826543
1.3536443 1.2849929 -1.4526025 0.54378915 -0.95067424 -0.17651848 0.13214743 -0.41666535
0.050442964 -0.12863591 -0.010542973 -2.0468554 -0.2139535 1.0978526 0.35723832 -0.3821094
0.43418008 -0.8022699 -0.43605494 0.0041829487 -0.16110706 0.17040023 1.0582608 -0.26972324
0.18009469 0.44969428 0.008863329 0.46199813 -0.5158554 -0.49330658 0.1374712 0.21679355
-0.14770588 -0.016916668 -0.21816345 0.07561512 -0.029183056 0.02834995 -0.11444412 -0.022741556
-0.115644336 -0.13256699 0.015293496 -0.001235779 -0.007915735 -0.115815006 -0.0027933735 -0.11865167
0.04679204 -0.04175736 -0.053671896 0.030534519 0.0049518426 -0.047514286 -0.023317281 -0.085546985
-0.036611557 0.058389947 -0.051652744 -0.11415404 -0.04944785 -0.108065 -0.13836205 0.07481608
-0.009166196 -0.07943941 -0.06758993 -0.049290523 -0.129979 0.022057254 -0.033037066 -0.009739625
0.026053444 -0.11441209 -0.040690906 -0.07987061 0.044711296 -0.14949639 0.040175054 -0.040660862
0.023373326 -0.012120582 -0.111078575 -0.078626186 0.020683445 0.00734441 0.0050423606 -0.18582475
-0.055248164 0.022252155 -0.05565992 -0.08715008 -0.15283284 -0.047970686 0.028439894 -0.13824795
-1.1435848 0.4718892 -0.22380807 -0.055862617 0.5653615 0.42423427 0.71885467 -0.9661972
0.32167032 -2.4070005 -0.18147734 -1.5590154 1.018905 0.2540605 0.39462492 -1.8201166
-0.5496138 -1.2478223 1.2450873 -0.74989635 -0.22193274 -1.1108481 0.90368617 -1.8266354
-0.26936057 -0.15665227 0.9100746 -0.081944376 -1.2741476 -0.9215208 1.161819 0.42096284
-0.6467402 0.797851 -0.6608995 -1.0737633 0.4404656 -0.1621192 -0.5400952 0.29495096
-0.77847564 -0.37344489 -0.009628333 -2.3460171 0.60347277 0.1225079 0.076196924 -2.5741034
1.2710025 0.14069673 0.14361848 0.07116532 1.6870764 -0.019577328 1.4890263 -0.022256004
-0.041325226 0.6976041 0.1471513 -0.21251684 -0.5698743 0.017410642 -0.10300177 -0.5926058
-1.2981017 0.018467003 0.7038277 -0.024364278 0.35122535 -0.08468172 -1.2677236 1.5490005
-0.2857938 0.12626569 0.13383627 1.1435039 -0.4630212 1.0643426 -2.0124097 1.5383455
0.8157683 0.8778221 0.14362225 -1.5808983 -0.8731798 0.16929919 -1.301599 -2.2983887
0.49120447 -1.010917 1.2058164 0.08493682 1.2626282 -0.6792003 -0.10318404 0.56059295
-0.01824902 -0.49322563 -0.20306596 -0.08432644 -0.681897 0.120682046 0.32209894 1.1109558
-0.9179118 1.0532719 1.3362684 -1.4099039 0.41928273 1.3033713 0.50360954 -1.7549334
1.6696532 0.7620287 -0.23126858 0.034689683 1.3365043 -0.18907991 1.2205429 0.17649093
-0.5605621 0.85818493 -0.20004214 -0.5830429 1.1065978 -0.53759193 1.4459764 1.0140678
00000000: e49c a4be 3560 9d3e c978 953d 937a cebd
00000010: a97d 1dbf 36c6 9f3f d193 9aba b4d1 ae3f
00000020: 8956 853e 220c 053e c665 69bf 82ad c43e
00000030: 4717 40be 2595 883d 03d8 d0bd 1178 cfbe
00000040: c613 0e3f ba2c 0c3f d62a 8c3f aefc 913e
00000050: 17c5 903d 06e0 d93d 1b2d 56be d7de 893f
00000060: 5ff6 c4bf 08a4 a9bf 7346 363f 6144 9bbe
00000070: 059d d33c daa9 8d3f c8ba 593f d528 153f
00000080: 3744 ad3f a67a a43f e1ee b9bf c435 0b3f
00000090: 635f 73bf 43c1 34be a851 073e 2955 d5be
000000a0: 489d 4e3d 22b9 03be 6fbc 2cbc aeff 02c0
000000b0: a016 5bbe 6f86 8c3f f1e7 b63e d8a3 c3be
000000c0: da4c de3e 8f61 4dbf 9842 dfbe 1e11 893b
000000d0: 40f9 24be 667d 2e3e 1775 873f 2a19 8abe
000000e0: be6a 383e 543e e63e 7f37 113c 058b ec3e
000000f0: 190f 04bf ae92 fcbe 40c5 0c3e 21ff 5d3e
00000100: 3640 17be d394 8abc 3d66 5fbe 1adc 9a3d
00000110: 4e11 efbc 283e e83c ae61 eabd 804c babc
00000120: f0d6 ecbd a4bf 07be 9291 7a3c ddf9 a1ba
00000130: 00b1 01bc 6b30 edbd 0811 37bb a6ff f2bd
00000140: 03a9 3f3d c409 2bbd 10d7 5bbd 8723 fa3c
00000150: 1143 a23b 579e 42bd e203 bfbc 4233 afbd
00000160: 00f6 15bd 4c2a 6f3d d491 53bd 98c9 e9bd
00000170: d489 4abd 2f51 ddbd c8ae 0dbe 2c39 993d
00000180: d02d 16bc 21b1 a2bd 976c 8abd dce4 49bd
00000190: 3719 05be 6ab1 b43c e051 07bd f392 1fbc
000001a0: 086e d53c e350 eabd 82ab 26bd 3493 a3bd
000001b0: 3123 373d 9515 19be 998e 243d 018c 26bd
000001c0: 6b79 bf3c 6895 46bc 2a7d e3bd c406 a1bd
000001d0: 5470 a93c 60a9 f03b 633a a53b d848 3ebe
000001e0: e64b 62bd 274a b63c a8fb 63bd be7b b2bd
000001f0: 3680 1cbe e97c 44bd c8fa e83c df90 0dbe
00000200: fd60 92bf 769b f13e f12d 65be 33d0 64bd
00000210: 88bb 103f 3c35 d93e dc06 383f b358 77bf
00000220: f9b1 a43e 4c0c 1ac0 32d5 39be d18d c7bf
00000230: 7b6b 823f 3814 823e 470c ca3e 95f9 e8bf
00000240: 7db3 0cbf a4b8 9fbf 055f 9f3f 35f9 3fbf
00000250: 5642 63be 4530 8ebf fa57 673f 30cf e9bf
00000260: a1e9 89be 7469 20be a6fa 683f 74d2 a7bd
00000270: 4517 a3bf cae8 6bbf 7cb6 943f 7188 d73e
00000280: c490 25bf f73f 4c3f b630 29bf 1371 89bf
00000290: b584 e13e 9302 26be ae43 0abf d003 973e
000002a0: 2e4a 47bf 2b34 bfbe 28c0 1dbc 2525 16c0
000002b0: 317d 1a3f 6ce5 fa3d 220d 9c3d 1cbe 24c0
000002c0: 36b0 a23f ce12 103e b910 133e 20bf 913d
000002d0: 1ff2 d73f a260 a0bc 6a98 be3f 3952 b6bc
000002e0: a444 29bd 2f96 323f d5ae 163e 049e 59be
000002f0: 48e3 11bf c3a0 8e3c 98f2 d2bd 04b5 17bf
00000300: 3228 a6bf 1d48 973c 0d2e 343f 9897 c7bc
00000310: cfd3 b33e 9c6d adbd c444 a2bf a645 c63f
00000320: 9153 92be cb4b 013e 600c 093e 565e 923f
00000330: 1d11 edbe 613c 883f 52cb 00c0 81e8 c43f
00000340: 31d6 503f f3b8 603f b611 133e e05a cabf
00000350: b688 5fbf c45c 2d3e cc9a a6bf cd18 13c0
00000360: 277f fb3e ba65 81bf 3158 9a3f 5bf3 ad3d
00000370: cd9d a13f 12e0 2dbf 2752 d3bd 0583 0f3f
00000380: f87e 95bc 1288 fcbe 86f0 4fbe 57b3 acbd
00000390: cd90 2ebf 2628 f73d 27ea a43e cd33 8e3f
000003a0: 45fc 6abf 9dd1 863f d80a ab3f bb77 b4bf
000003b0: 3aac d63e dfd4 a63f 8eec 003f a8a1 e0bf
000003c0: 32b7 d53f 5014 433f acd1 6cbe c516 0e3d
000003d0: 9312 ab3f 2a9e 41be c03a 9c3f 0aba 343e
000003e0: ff80 0fbf 02b2 5b3f d9d7 4cbe 4d42 15bf
000003f0: ffa4 8d3f a09f 09bf c115 b93f f9cc 813f

gin.module_2.nn.lins.1.bias f4 [64]
-1.8676825 -0.19748579 -0.5998766 0.57834285 1.129162 -0.849367 -3.2614536 -1.2395407
-0.95980966 -0.37328652 0.60321563 -0.2570237 -0.40814078 -2.7405097 -1.5090755 -0.5622029
-1.4715176 -0.6034961 -1.4638609 -2.0024772 -1.2721494 -1.1426022 0.3497622 -0.6390979
1.6074431 -0.7447566 -1.1941904 0.18616019 -2.5869184 0.57390046 1.0484484 1.060502
-0.77497333 -3.0921333 -2.1251044 -0.2632388 2.6383584 0.7095997 -1.1660411 0.22896579
0.1515688 -0.8655518 -0.008403014 0.7028144 -1.4454619 -0.4502284 0.7593774 0.22220849
0.16552623 -0.58180195 -2.2146833 -1.2962741 -0.22939298 -2.319186 -0.28412303 -1.9705493
-0.61031246 -0.50413656 -1.4419655 -0.4235127 -0.3873168 0.4958658 -2.1544478 0.49325666
00000000: 3810 efbf b739 4abe 8391 19bf 470e 143f
00000010: 6188 903f 1e70 59bf a8bb 50c0 45a9 9ebf
00000020: 16b6 75bf 691f bfbe 576c 1a3f 9c98 83be
00000030: d4f7 d0be 8364 2fc0 6329 c1bf 87ec 0fbf
00000040: b05a bcbf b87e 1abf cb5f bbbf 9628 00c0
00000050: cbd5 a2bf ca40 92bf 0814 b33e ec9b 23bf
00000060: b2c0 cd3f 5ea8 3ebf 3bdb 98bf c7a0 3e3e
00000070: 1290 25c0 24eb 123f 8f33 863f 88be 873f
00000080: a764 46bf 83e5 45c0 b601 08c0 3cc7 86be
00000090: ddda 2840 53a8 353f d640 95bf 0276 6a3e
000000a0: da34 1b3e ce94 5dbf ccac 09bc a5eb 333f
000000b0: e504 b9bf 5684 e6be 8f66 423f 9f8a 633e
000000c0: b57f 293e f9f0 14bf 5fbd 0dc0 4fec a5bf
000000d0: fee5 6abe 8b6d 14c0 9378 91be f63a fcbf
000000e0: 703d 1cbf 180f 01bf 5392 b8bf a8d6 d8be
000000f0: 634e c6be 1fe2 fd3e 79e2 09c0 238c fc3e

gin.module_4.nn.lins.0.weight f4 [64, 64]
1.2069886 -0.13902287 -1.7057921 -0.0074001746 -0.18482089 1.2528319 -0.1427505 -0.45834392
-0.98622435 0.5339072 -0.71156853 0.5058919 -2.182829 0.8909377 -0.4385121 -1.2412572
0.15897356 1.6045551 0.6371764 0.78177184 -0.122562565 0.81717205 -0.3575528 0.11673235
-0.6659761 -0.30071884 -0.36489487 -0.13295014 -1.3334093 -1.1553696 1.3670447 -0.3405408
1.2979683 -1.5667232 0.8087726 0.8201089 -0.11041144 0.45201388 0.203884 -0.22753967
0.28437528 -1.3920863 -0.6062707 -0.37449506 1.5770867 0.84839314 0.6792674 0.99357116
0.3044956 -0.9241904 1.1915135 -0.07092371 -0.5141817 0.6194191 1.0381207 1.8967614
0.16027357 0.71469635 1.400575 -1.0896105 0.18676801 0.02101544 -0.50547624 -0.26904646
-0.2320588 -0.0325131 -1.5851872 -1.3895357 -0.74466765 1.6838928 -0.4956388 0.008352961
0.8111594 -0.7151953 -0.67548364 -0.03565896 0.74160576 -0.091708474 0.35280433 1.0885665
2.1000311 1.3879204 -1.1519358 0.32061812 0.2649449 0.017873595 0.38906983 0.8965627
-0.8975028 -0.9518862 -0.5609419 -0.4512789 1.2430663 0.55338544 -0.6072129 -0.19818643
-0.048269916 -0.16360037 0.54018235 1.0850575 -0.5959748 0.4347433 -0.08686176 0.39419273
0.42471027 0.7398541 0.95247376 0.81664866 0.062571876 1.5278201 0.034366813 0.87630486
-1.1156571 0.1695533 0.7892231 0.99410206 1.4333637 -0.642748 0.31111577 1.7716153
2.2911546 -1.0994219 0.47439286 0.046573598 -0.7435451 -0.79478234 0.22454305 1.0464662
-1.3361778 0.05667061 0.10632986 -0.06502641 -0.47338644 -1.4056067 -0.64703494 -1.741233
-0.0029854802 -0.57166255 -0.058617063 0.27572805 2.4946764 0.47946838 0.29949623 -0.8521775
0.86802405 -1.5251774 -0.30075228 -0.4648325 0.51080704 0.78425443 0.32592005 0.3976725
0.35846916 0.24942535 -0.32588783 -2.3203237 0.6130394 0.11789426 0.48571238 -0.50242263
-1.311323 1.4660745 -0.13126652 -1.1807984 0.3387655 0.48498678 -0.30955386 0.36485523
0.57645494 1.7679553 -1.821186 -2.0783973 -0.7888903 0.2723278 -0.06799372 -0.60573435
-1.4423367 -1.1795187 1.1458439 -1.0528512 -0.7526062 0.13799287 -0.06549389 -0.20559846
-0.7192399 -0.03739069 -2.97393 1.081526 -3.0269446 0.35409588 0.42357066 0.2763717
1.3213015 -0.006559394 0.5238708 0.32240656 -0.2235758 -0.32666463 -0.49298623 0.19086161
-1.4559902 0.6032125 -0.83903015 -0.40596783 2.6134558 0.10344308 -1.3540218 0.7667197
0.5306761 -1.5749291 -0.5480614 2.2361944 0.42593575 0.51553327 -0.16084902 0.549824
0.08564711 0.29630962 -1.9018965 0.62785095 1.1105045 0.4655082 -0.6420518 -0.19973436
-1.28725 -0.65556073 -2.6324093 0.5799452 0.058813777 -2.0617435 -1.9038235 -0.57093734
1.045129 1.68683 0.2535826 -2.0817025 -0.5149119 0.166821 -0.41436392 -0.67158777
-1.1547222 0.10325617 1.1341969 0.8397735 -0.66930324 1.7415127 -0.15238298 0.08706093
0.23130907 -0.27492192 0.36494136 -0.47618175 0.7816673 -0.8376802 -1.8995755 -0.035654053
00000000: 9a7e 9a3f 035c 0ebe 6557 dabf 2a7d f2bb
00000010: b041 3dbe cc5c a03f 302d 12be 0eac eabe
00000020: 3379 7cbf 24ae 083f 5b29 36bf 2282 013f
00000030: 78b3 0bc0 7e14 643f a884 e0be 84e1 9ebf
00000040: f7c9 223e 1062 cd3f fe1d 233f 3322 483f
00000050: 1502 fbbd 3032 513f 2911 b7be 5f11 ef3d
00000060: 697d 2abf d2f7 99be 80d3 babe 1524 08be
00000070: 28ad aabf 27e3 93bf 52fb ae3f 5d5b aebe
00000080: d323 a63f 638a c8bf b90b 4f3f a8f2 513f
00000090: 651f e2bd 5d6e e73e f8c6 503e 2900 69be
000000a0: a399 913e e22f b2bf 8e34 1bbf d1bd bfbe
000000b0: fadd c93f 4b30 593f 78e4 2d3f ae5a 7e3f
000000c0: d9e6 9b3e be97 6cbf 8483 983f 7340 91bd
000000d0: 69a1 03bf 4092 1e3f 24e1 843f 14c9 f23f
000000e0: c11e 243e 57f6 363f 0b46 b33f 5b78 8bbf
000000f0: 1d40 3f3e 9228 ac3c e466 01bf 75c0 89be
00000100: d2a0 6dbe 752c 05bd 6ae7 cabf 4edc b1bf
00000110: 8aa2 3ebf cd89 d73f 5ec4 fdbe dcda 083c
00000120: 24a8 4f3f 0a17 37bf 7fec 2cbf 210f 12bd
00000130: e0d9 3d3f a7d1 bbbd c5a2 b43e 2656 8b3f
00000140: e966 0640 60a7 b13f a272 93bf 0f28 a43e
00000150: dca6 873e a56b 923c 2934 c73e 2285 653f
00000160: bec2 65bf d0ae 73bf e399 0fbf 070e e7be
00000170: cc1c 9f3f abaa 0d3f 4e72 1bbf 62f1 4abe
00000180: adb6 45bd db86 27be 6449 0a3f 2ae3 8a3f
00000190: ce91 18bf ac96 de3e 94e4 b1bd a1d3 c93e
000001a0: a073 d93e 1467 3d3f 52d5 733f e30f 513f
000001b0: af25 803d 9c8f c33f 37c4 0c3d 8455 603f
000001c0: dacd 8ebf 619f 2d3e 860a 4a3f 797d 7e3f
000001d0: 7678 b73f 228b 24bf 914a 9f3e 4ac4 e23f
000001e0: 47a2 1240 dbb9 8cbf 9fe3 f23e f5c3 3e3d
000001f0: f958 3ebf db76 4bbf 9dee 653e 9bf2 853f
00000200: e007 abbf 711f 683d 78c3 d93d 912c 85bd
00000210: b55f f2be ecea b3bf 15a4 25bf b9e0 debf
00000220: 0ca8 43bb 7a58 12bf 7218 70bd 3a2c 8d3e
00000230: c7a8 1f40 e17c f53e 9257 993e 4e28 5abf
00000240: d336 5e3f 0339 c3bf 34fc 99be 87fe edbe
00000250: 40c4 023f e6c4 483f fede a63e bb9b cb3e
00000260: 4589 b73e 5c69 7f3e c5da a6be 2f80 14c0
00000270: 26f0 1c3f 8c72 f13d 4baf f83e c59e 00bf
00000280: 6fd9 a7bf 54a8 bb3f bb6a 06be 6724 97bf
00000290: ac72 ad3e 3050 f83e d87d 9ebe 4ece ba3e
000002a0: 8d92 133f 5c4c e23f 9f1c e9bf 7604 05c0
000002b0: b7f4 49bf 8d6e 8b3e 4b40 8bbd 6811 1bbf
000002c0: 7d9e b8bf 78fa 96bf 03ab 923f d4c3 86bf
000002d0: cdaa 40bf 014e 0d3e a921 86bd 6788 52be
000002e0: 1b20 38bf fb26 19bd de54 3ec0 726f 8a3f
000002f0: 76b9 41c0 0e4c b53e 41de d83e 9780 8d3e
00000300: 6820 a93f 2ff0 d6bb 661c 063f 7912 a53e
00000310: 0ef1 64be 9640 a7be b168 fcbe 3a71 433e
00000320: e35d babf 226c 1a3f aeca 56bf 04db cfbe
00000330: dc42 2740 f7d9 d33d 9650 adbf be47 443f
00000340: 64da 073f 4797 c9bf c04d 0cbf cf1d 0f40
00000350: 4014 da3e fdf9 033f 9bb5 24be 44c1 0c3f
00000360: c167 af3d e5b5 973e 5871 f3bf d7ba 203f
00000370: 0325 8e3f 1757 ee3e 825d 24bf 2a87 4cbe
00000380: 9cc4 a4bf d4d2 27bf 6579 28c0 4a77 143f
00000390: b7e6 703d 9bf3 03c0 7db0 f3bf f328 12bf
000003a0: c9c6 853f 0cea d73f 94d5 813e 9d3a 05c0
000003b0: 44d1 03bf 20d3 2a3e 8227 d4be 2ded 2bbf
000003c0: f0cd 93bf f977 d33d 5d2d 913f 65fb 563f
000003d0: 7557 2bbf e3e9 de3f 490a 1cbe 004d b23d
000003e0: 49dc 6c3e 91c2 8cbe 98d9 ba3e 18ce f3be
000003f0: 591b 483f 3672 56bf 4a25 f3bf fc09 12bd

gin.module_4.nn.lins.0.bias f4 [64]
-3.5573635 -5.775096 0.55809605 -1.2144628 -1.161707 -2.811019 -5.476017 -4.957556
-2.2399814 -2.9878938 0.3769405 -0.20182137 5.9216743 -6.545738 -0.7100562 2.8466551
2.060271 5.515429 -2.791788 -1.423501 2.4649408 -5.108488 -6.5714974 3.7041152
-3.1119733 -4.1517067 3.9864326 -4.8024993 -0.18487085 1.6153415 -3.4715767 -0.9739227
7.1595592 -3.5848649 -1.0735608 1.8447987 -2.393625 -4.9321866 -2.2791758 -3.5192504
-1.4299808 -2.3293726 -6.947753 -5.7867312 -3.5313573 3.5125704 3.330272 0.6168088
-6.8490987 -2.3549304 -0.306558 -2.519615 0.22131884 -5.3596544 -0.11241841 4.766175
0.54028296 5.16265 -3.5336862 -4.0472207 -3.1120188 -3.0399065 0.26363412 -3.361526
00000000: d8ab 63c0 96cd b8c0 62df 0e3f 8473 9bbf
00000010: d1b2 94bf bce7 33c0 883b afc0 4ca4 9ec0
00000020: db5b 0fc0 a739 3fc0 58fe c03e 43aa 4ebe
00000030: 5b7e bd40 b076 d1c0 3ec6 35bf 992f 3640
00000040: 7bdb 0340 657e b040 a8ac 32c0 4835 b6bf
00000050: 97c1 1d40 bc78 a3c0 b549 d2c0 3910 6d40
00000060: 922a 47c0 c8da 84c0 b621 7f40 13ae 99c0
00000070: c94e 3dbe 83c3 ce3f 502e 5ec0 0053 79bf
00000080: 1c1b e540 6d6e 65c0 716a 89bf 5d22 ec3f
00000090: 2731 19c0 79d4 9dc0 04de 11c0 663b 61c0
000000a0: 9c09 b7bf 7114 15c0 fe53 dec0 e72c b9c0
000000b0: c201 62c0 f4cd 6040 2d23 5540 2ee7 1d3f
000000c0: d12b dbc0 2eb7 16c0 2cf5 9cbe 5f41 21c0
000000d0: 68a1 623e 4a82 abc0 a03b e6bd 8184 9840
000000e0: fc4f 0a3f 6e34 a540 ea27 62c0 d582 81c0
000000f0: 512b 47c0 d48d 42c0 0dfb 863e 3e23 57c0

gin.module_4.nn.lins.1.weight f4 [64, 64]
1.3087339 0.65083367 -0.5744145 1.276366 0.16815537 0.28182346 -0.26777628 1.6706514
0.3277438 0.72288054 0.28008702 0.8650848 0.25791934 1.6664509 -1.0107958 0.3167264
-0.5977203 -0.4645004 0.4039328 -0.6033206 -0.52070916 1.3279879 -0.11417252 1.0838367
0.8414031 0.7496785 0.489516 -1.5850648 -0.7916158 -0.47256964 0.9352427 -1.7511983
-0.07377282 0.3122901 0.70215285 0.08773643 -0.58823377 1.5580293 -1.3508804 0.17983404
1.764932 0.5568253 -0.4010662 0.5203906 1.1180968 0.34209806 -0.912324 0.5475729
1.8422954 0.43300608 -0.18752736 -0.36291268 -0.8537709 -0.5345179 0.38255638 -0.49448442
-1.8421502 0.28742296 -0.6171627 0.07161493 0.13597484 1.023537 0.25096387 0.35482988
-1.346244 -0.550257 1.06646 -0.32165712 -0.25354394 -0.22264203 0.10830632 1.458319
-0.53349394 -0.10976176 -0.61124223 -0.85659736 -0.54272133 -0.028976882 0.23445071 -1.4625643
1.7968484 0.36328048 -0.32547575 0.26593652 0.19795084 -0.14004584 1.4755824 -1.3299488
0.052068308 -1.3563186 -0.48764914 0.49494594 -0.017242733 -0.60533327 1.7712482 1.4048315
-0.26177576 -0.3283636 0.4621422 -0.05125728 -1.100468 0.10847468 0.69355005 0.28403974
-0.06605624 0.9629142 2.2771666 1.3559384 -0.79931605 -0.07842285 0.20129946 0.5366556
-1.1875445 -2.6360307 0.80043995 1.0828617 0.708807 1.1681001 0.6166003 -0.84664017
0.52765745 -0.32492763 0.109333485 -0.10263103 -0.40590864 -1.308912 1.136862 0.77192533
-1.2743177 0.5882796 -0.20480254 0.16460274 0.26632878 0.6259476 0.39146832 0.94551677
1.2013909 0.11021322 -0.113075614 0.7081074 -0.3456463 -0.3729922 0.23396704 0.2961829
0.32687724 -0.28023273 -0.37699082 0.4693012 0.92977035 0.1933137 0.9023913 1.6386251
1.3575654 1.1016237 -0.18990768 0.33290204 0.75769395 -0.35704908 -0.9509933 -0.53746665
-0.36093113 -1.2538317 0.49132746 -0.81548375 -0.87439835 -0.3775748 0.29164732 -0.011861783
0.46150666 0.8144319 0.9946515 -0.23341241 0.4024558 -0.6553489 -0.10229155 0.15231366
0.28112113 0.19791368 0.21253781 1.0758222 -2.0505102 0.57269144 -0.6542486 -0.1568662
-0.1329917 0.21301506 0.49831137 1.350084 -0.77653325 -0.5094124 -0.98618484 -0.083050795
-0.2710125 1.2870482 -0.80405164 0.2464772 -0.3764642 -0.9355065 -0.07689383 1.2534522
-0.4925658 1.5458431 0.60439444 0.10709363 0.09303043 1.8938721 1.7117488 0.05475447
-0.43300712 -0.16819364 -0.7494042 1.808842 -0.23110136 0.62373525 0.123955205 0.34593922
-0.2669795 0.745328 -1.2226303 2.302748 1.2208155 0.23867331 0.5581929 -1.028548
-0.102038905 1.1593616 0.53076977 -0.12049866 0.11707394 0.82419854 1.8174404 0.32293007
1.357729 0.06668671 -0.2546717 0.07279911 -2.0213718 1.1231711 -0.88887745 0.59232825
1.5324764 1.1021574 0.23608671 -1.1764402 0.59645784 0.3388544 1.1385741 -0.44791266
-1.3913006 0.13994141 0.76412773 -0.27912185 -0.54689425 -0.41300723 -0.317005 -0.094602145
00000000: 9884 a73f 099d 263f d40c 13bf f65f a33f
00000010: ec30 2c3e 2a4b 903e f919 89be e8d7 d53f
00000020: 09ce a73e b30e 393f 9167 8f3e 3376 5d3f
00000030: 010e 843e 434e d53f c261 81bf f629 a23e
00000040: 3304 19bf ffd2 edbe 48d0 ce3e 3873 1abf
00000050: 324d 05bf 82fb a93f 48d3 e9bd 29bb 8a3f
00000060: 3266 573f eeea 3f3f d7a1 fa3e 67e3 cabf
00000070: 55a7 4abf a6f4 f1be 116c 6f3f 4427 e0bf
00000080: 3416 97bd 7de4 9f3e 4ac0 333f 28af b33d
00000090: 7d96 16bf 816d c73f a6e9 acbf 6a26 383e
000000a0: 4be9 e13f 1a8c 0e3f 8d58 cdbe 5238 053f
000000b0: cc1d 8f3f 7a27 af3e 118e 69bf bd2d 0c3f
000000c0: 56d0 eb3f f9b2 dd3e 2c07 40be b1cf b9be
000000d0: bb90 5abf 2ad6 08bf 6ede c33e 102d fdbe
000000e0: 94cb ebbf 1a29 933e 60fe 1dbf d9aa 923d
000000f0: fd3c 0b3e 4303 833f 567e 803e 43ac b53e
00000100: b951 acbf a5dd 0cbf c381 883f 3eb0 a4be
00000110: 83d0 81be 46fc 63be b4cf dd3d 32aa ba3f
00000120: 0f93 08bf c6ca e0bd 5f7a 1cbf f749 5bbf
00000130: c9ef 0abf ed60 edbc d913 703e 4f35 bbbf
00000140: 21ff e53f e6ff b93e c2a4 a6be d528 883e
00000150: a0b3 4a3e 2d68 0fbe e2df bc3f c33b aabf
00000160: 9445 553d d99b adbf 26ad f9be 8e69 fd3e
00000170: a240 8dbc 1ff7 1abf 43b8 e23f 85d1 b33f
00000180: 7907 86be 461f a8be e79d ec3e 27f3 51bd
00000190: 23dc 8cbf f927 de3d 7f8c 313f a86d 913e
000001a0: 7e48 87bd 8c81 763f 19bd 1140 648f ad3f
000001b0: fa9f 4cbf 299c a0bd 7221 4e3e 4362 093f
000001c0: 7501 98bf bab4 28c0 a2e9 4c3f 369b 8a3f
000001d0: 6074 353f 4e84 953f 84d9 1d3f 69bd 58bf
000001e0: 8f14 073f ea5c a6be 3cea df3d 3830 d2bd
000001f0: 42d3 cfbe 6e8a a7bf b284 913f e69c 453f
00000200: d81c a3bf 7e99 163f c2b7 51be 9f8d 283e
00000210: 3f5c 883e 1a3e 203f 896e c83e 630d 723f
00000220: 2dc7 993f 78b7 e13d 3094 e7bd 8746 353f
00000230: 8df8 b0be d5f8 bebe 0e95 6f3e 49a5 973e
00000240: 745c a73e aa7a 8fbe f104 c1be 3f48 f03e
00000250: 6e05 6e3f 07f4 453e 1e03 673f 78be d13f
00000260: b4c4 ad3f 0102 8d3f 2977 42be 2372 aa3e
00000270: 3bf8 413f 23cf b6be 4c74 73bf 6a97 09bf
00000280: f7cb b8be 8f7d a0bf 468f fb3e 8bc3 50bf
00000290: 92d8 5fbf 7c51 c1be cc52 953e ed57 42bc
000002a0: 9a4a ec3e 9c7e 503f 7ba1 7e3f aa03 6fbe
000002b0: b00e ce3e f2c4 27bf 3b7e d1bd 1df8 1b3e
000002c0: 1cef 8f3e e2a9 4a3e 83a3 593e 8bb4 893f
000002d0: 8f3b 03c0 e89b 123f d67c 27bf 88a1 20be
000002e0: fa2e 08be 9f20 5a3e ab22 ff3e 8dcf ac3f
000002f0: e2ca 46bf da68 02bf 9c76 7cbf 8916 aabd
00000300: 27c2 8abe ffbd a43f 54d6 4dbf 8564 7c3e
00000310: eabf c0be 5b7d 6fbf 837a 9dbd 1f71 a03f
00000320: 9631 fcbe 30de c53f 98b9 1a3f e853 db3d
00000330: bd86 be3d 676a f23f 961a db3f 3946 603d
00000340: 1cb3 ddbe f43a 2cbe f4d8 3fbf 2288 e73f
00000350: d6a5 6cbe 1dad 1f3f 3adc fd3d f21e b13e
00000360: 89b1 88be d1cd 3e3f 267f 9cbf 3960 1340
00000370: af43 9c3f c766 743e bbe5 0e3f 76a7 83bf
00000380: c6f9 d0bd f665 943f 87e0 073f 00c8 f6bd
00000390: 76c4 ef3d adfe 523f e3a1 e83f 1757 a53e
000003a0: 10ca ad3f 0b93 883d 5464 82be b317 953d
000003b0: 285e 01c0 12c4 8f3f 798d 63bf d3a2 173f
000003c0: 3028 c43f 7e13 8d3f b7c0 713e 9895 96bf
000003d0: 76b1 183f 537e ad3e ccbc 913f cf54 e5be
000003e0: 2316 b2bf cd4c 0f3e e09d 433f 0fe9 8ebe
000003f0: 4301 0cbf af75 d3be 7b4e a2be c5be c1bd

gin.module_4.nn.lins.1.bias f4 [64]
-2.485302 -1.7841268 -2.4762573 -2.375991 -0.5399249 -1.7247368 -1.9806895 -0.965056
-1.7705112 -1.7696579 -2.4746158 -1.5737681 0.24243335 -1.5815395 -1.3568523 -0.5744303
-1.6015629 -1.985611 -1.272052 -1.3355063 -0.9007113 -1.3995996 -1.1188364 -0.6780074
-0.59735 -1.6965941 -0.9256365 -1.6893549 0.5220072 -1.2619053 -1.6700838 -3.0403657
-2.550618 -2.0605068 -2.5696075 1.8112996 -1.7404716 -1.4110143 -1.698698 -1.8723222
-0.68534064 -2.548742 0.26326898 -1.3209089 -2.5865204 0.03552042 0.5959648 -1.2343024
-2.9939606 -1.103051 -1.2522557 -1.342016 -1.1252869 -3.7317364 -0.5261524 -1.4859437
-2.2546222 -3.3488734 1.097157 3.1352134 -1.1460773 -1.7993165 -1.2994856 -3.2648613
00000000: 300f 1fc0 445e e4bf 007b 1ec0 3d10 18c0
00000010: 8538 0abf 2dc4 dcbf 3c87 fdbf e90d 77bf
00000020: 1ca0 e2bf 2684 e2bf 1b60 1ec0 3c71 c9bf
00000030: 7340 783e e36f cabf 56ad adbf dd0d 13bf
00000040: 0300 cdbf 8028 febf 9ad2 a2bf dff1 aabf
00000050: 0495 66bf 1426 b3bf 0836 8fbf e591 2dbf
00000060: eeeb 18bf ff29 d9bf 83f6 6cbf c83c d8bf
00000070: 44a2 053f 1d86 a1bf 4ec5 d5bf 5a95 42c0
00000080: 533d 23c0 58df 03c0 7374 24c0 aad8 e73f
00000090: c6c7 debf 1e9c b4bf f06e d9bf 41a8 efbf
000000a0: 7c72 2fbf 971e 23c0 31cb 863e 8b13 a9bf
000000b0: 8d89 25c0 dc7d 113d 2691 183f 9ffd 9dbf
000000c0: 0d9d 3fc0 c630 8dbf ea49 a0bf 2ec7 abbf
000000d0: 6709 90bf c5d4 6ec0 ecb1 06bf 6733 bebf
000000e0: bb4b 10c0 f153 56c0 a46f 8c3f 56a7 4840
000000f0: a9b2 92bf 0150 e6bf 8b55 a6bf 7df3 50c0

linear.weight f4 [2, 64]
0.05295262 0.054169662 0.088574946 0.04299121 0.021720756 -0.07298121 0.053140186 0.038840037
0.14139012 0.23886958 0.0006395182 0.16873644 -0.021537336 -0.11751649 -0.081798986 0.12298977
0.08982133 -0.021722136 -0.048790295 0.08609364 -0.3303586 0.066479266 -0.012258595 -0.05111361
-0.018458558 -0.17044896 -0.6287129 0.4632158 0.0075835804 -0.012820239 -0.11181761 -0.093186006
0.13991599 0.030237911 -0.093055874 0.022914136 0.20386642 0.11091204 0.028933961 0.04854353
-0.054953746 -0.08859678 0.0359778 0.029090561 0.41629443 -0.094282776 0.10495056 -0.16006154
-0.015283931 -0.15195623 0.07452618 -0.027626082 0.02769951 -0.09217469 -0.0623609 0.0284339
-0.14686377 0.084228985 0.010928612 -0.002656057 0.06783736 -0.18975985 -0.16413993 0.13198124
-0.054880485 -0.059383377 -0.08847496 -0.043125954 -0.021747142 0.072782755 -0.05374779 -0.03881598
-0.14656098 -0.23848608 -0.00057437894 -0.17197889 0.021474192 0.118772395 0.08166418 -0.12337934
-0.10386674 0.023567181 0.04836048 -0.08623636 0.33027354 -0.06597444 0.012269572 0.05147147
0.018306244 0.17015222 0.6283962 -0.47292286 -0.007608781 0.012811576 0.106932305 0.09344845
-0.14405958 -0.030118363 0.091441564 -0.022998866 -0.20457248 -0.11243715 -0.029026456 -0.04694975
0.054640636 0.082075134 -0.036119785 -0.028822614 -0.41651753 0.09065416 -0.10659071 0.16020958
0.014934037 0.14935412 -0.07482976 0.027590793 -0.027776763 0.09212281 0.06440491 -0.02862607
0.14545171 -0.086025156 -0.010746317 0.0026434523 -0.06701646 0.18876743 0.16292165 -0.13233936
00000000: d9e4 583d 02e1 5d3d c866 b53d 8d17 303d
00000010: baef b13c 2c77 95bd 86a9 593d bb16 1f3d
00000020: 92c8 103e 3a9a 743e 57a5 273a 3fc9 2c3e
00000030: 116f b0bc 7cac f0bd 3a86 a7bd 0fe2 fb3d
00000040: 3ff4 b73d 9ff2 b1bc 55d8 47bd dd51 b03d
00000050: c324 a9be 4826 883d 46d8 48bc 815c 51bd
00000060: 6736 97bc 2c8a 2ebe 54f3 20bf 9f2a ed3e
00000070: af7f f83b fb0b 52bc a200 e5bd 4ed8 bebd
00000080: 2346 0f3e 7fb5 f73c 1494 bebd 6db6 bb3c
00000090: 5cc2 503e da25 e33d ea06 ed3c 95d5 463d
000000a0: 2e17 61bd 3b72 b5bd 755d 133d 544f ee3c
000000b0: 8b24 d53e 5417 c1bd 52f0 d63d 2ce7 23be
000000c0: 7469 7abc 6a9a 1bbe 2fa1 983d 1850 e2bc
000000d0: 15ea e23c 15c6 bcbd 256e 7fbd 36ee e83c
000000e0: 7563 16be 3f80 ac3d ec0d 333c 3e11 2ebb
000000f0: 50ee 8a3d 6850 42be 4c14 28be 1726 073e
00000100: 5cca 60bd fc3b 73bd 5c32 b5bd d7a4 30bd
00000110: 1027 b2bc 200f 953d a526 5cbd 81fd 1ebd
00000120: 1514 16be b235 74be eb91 16ba 3c1b 30be
00000130: a5ea af3c f13e f33d 8d3f a73d 4fae fcbd
00000140: 16b8 d4bd f60f c13c a415 463d b09c b0bd
00000150: 9d19 a93e 9b1d 87bd 5106 493c c0d3 523d
00000160: faf6 953c 623c 2e3e 93de 203f f222 f2be
00000170: 1553 f9bb a5e7 513c 53ff da3d e761 bf3d
00000180: 5b84 13be c9ba f6bc b745 bb3d 1e68 bcbc
00000190: 737b 51be 7345 e6bd e4c8 edbc 624e 40bd
000001a0: dcce 5f3d 0217 a83d 57f2 13bd 671d ecbc
000001b0: c941 d5be e3a8 b93d 3b4c dabd fb0d 243e
000001c0: e4ad 743c 49f0 183e 5840 99bd 1606 e23c
000001d0: 188c e3bc e2aa bc3d b9e6 833d 3881 eabc
000001e0: 4bf1 143e f52d b0bd 5211 30bc c53d 2d3b
000001f0: ed3f 89bd 404c 413e efd4 263e f883 07be

linear.bias f4 [2]
-0.052677218 0.052760273
00000000: 11c4 57bd 281b 583d
